Reconstruction/MuonIdentification/CaloTrkMuIdTools/share/CaloMuonScoreModels/CaloMuonCNN_0.onnx (onnx, 91110 bytes, 21 tensors)

const_fold_opt__77 f4 [64, 1, 5, 5]
0	0xbca36482	-0.019945387
1	0x3dc13f0c	0.09435853
2	0x3cfa9e62	0.030593101
3	0xbd9e9125	-0.07742528
4	0xbe1f30ae	-0.15545914
5	0x3d830b3a	0.06398626
6	0x3d0ba68a	0.03409437
7	0x3d5e9a1e	0.054346196
8	0x3dd28759	0.10279722
9	0xbd40665c	-0.046972618
10	0xbd2f901b	-0.04286204
11	0xbe097715	-0.13424332
12	0xbd766fca	-0.060165204
13	0xbd40216e	-0.04690688
14	0x3cbd9902	0.023144249
15	0x3d3ddceb	0.046353262
16	0xbbbb0628	-0.005707521
17	0xbd33e444	-0.043918863
18	0x3d83e8d7	0.06440895
19	0x3c6217d1	0.013799624
20	0x3e5d58c2	0.2161589
21	0x3e600b59	0.21879329
22	0x3e81756f	0.25284907
23	0x3e748fc2	0.23882964
24	0x3e5562b1	0.20838429
25	0x3d02387a	0.03179214
26	0xbbe55ee1	-0.006999836
27	0x3d3471ae	0.044053726
28	0xbd82f658	-0.063946426
29	0x3d162dfe	0.036664955
30	0x3dbe1d49	0.092829295
31	0x3bef351a	0.0073000314
32	0xbc630c06	-0.013857847
33	0xbd26278a	-0.04056505
34	0x3c978081	0.018493893
35	0x3ceeca1e	0.029149111
36	0xbd71fa34	-0.059076503
37	0xbd9a08e1	-0.07521225
38	0xbd5b3ef4	-0.053526834
39	0xbdc65edb	-0.09686061
40	0x3d6f499b	0.058419805
41	0xbdef60b4	-0.116883665
42	0xbe026934	-0.12735444
43	0xbc4a6ef5	-0.012355556
44	0x3d213dd6	0.039365612
45	0x3c4ae632	0.012383984
46	0xbe17b416	-0.14814791
47	0xbd3eeca3	-0.046612393
48	0xbd4b8fb3	-0.04969759
49	0xbe156bec	-0.1459195
50	0x3dd1f7cb	0.10252341
51	0x3e4ab04c	0.19793814
52	0x3e2dd2d0	0.1697495
53	0x3db5df74	0.08880511
54	0x3e0bd66e	0.13656017
55	0xbcae530e	-0.021279838
56	0xbd59544a	-0.0530589
57	0x3c53df04	0.012931589
58	0x3d882910	0.06648457
59	0x3e16ad33	0.14714508
60	0xbe4dbd2b	-0.20091693
61	0xbe460d13	-0.19340925
62	0xbdd9f1a3	-0.10641792
63	0x3c23ec0c	0.010005008
64	0x3de5e902	0.11226083
65	0xbe418806	-0.18899545
66	0xbe749ee5	-0.23888738
67	0xbdcc2676	-0.09968273
68	0xbd2f3aec	-0.0427808
69	0x3ddbad0e	0.10726367
70	0xbe1d0128	-0.15332472
71	0xbd949dca	-0.072566584
72	0xbd552339	-0.052035544
73	0xbcc0f519	-0.023554372
74	0x3da6bd1a	0.08141537
75	0x3d6f55c2	0.058431394
76	0x3da7d839	0.08195538
77	0x3d32e025	0.043670792
78	0x3d861ef2	0.06548871
79	0x3e29bc3f	0.16575716
80	0x3d933a44	0.07188848
81	0x3d347866	0.044060133
82	0x3db0e1e6	0.08636837
83	0x3cdd4d96	0.027014535
84	0x3da100aa	0.07861455
85	0x3d75d985	0.060021896
86	0x3d0ad22f	0.033891853
87	0x3c9a01f0	0.018799752
88	0x3d87a706	0.06623654
89	0x3dd46ace	0.10371934
90	0x3d878bc2	0.066184536
91	0x3c3ac256	0.011398872
92	0x3d57b0bb	0.052658778
93	0x3d9354d1	0.07193912
94	0x3e017ca9	0.1264521
95	0x3d796d57	0.06089529
96	0x3d8662c5	0.065618075
97	0x3dd2a65b	0.10285636
98	0x3d46ce93	0.04853685
99	0x3e05e061	0.13073875
100	0xbe5052eb	-0.2034413
101	0xbe1823e2	-0.14857438
102	0xbdd796ae	-0.10526787
103	0xbe0a60cc	-0.13513488
104	0xbd8df012	-0.069305554
105	0xbe568b2c	-0.20951527
106	0xbe343386	-0.1759778
107	0x3d0a09fe	0.033700936
108	0xbd1a9be8	-0.03774634
109	0x3bca3094	0.0061703417
110	0xbe29b554	-0.16573077
111	0xbddbc19e	-0.10730289
112	0x3bbc2870	0.005742125
113	0x3debe86c	0.1151894
114	0x3e4223d5	0.18958981
115	0xbd14a903	-0.036293995
116	0xbcdc4a66	-0.026890945
117	0x3db02565	0.086008824
118	0x3d92d838	0.07170147
119	0x3e0b2f43	0.13592248
120	0x3dc818dd	0.09770367
121	0xbc8a43c3	-0.016878014
122	0x3d16e1b0	0.036836326
123	0x3dfa7884	0.12230018
124	0x3e146d1a	0.14494744
125	0x3e47a195	0.19495232
126	0x3c16aaa0	0.009195954
127	0xbe046889	-0.12930502
128	0xbe50a41f	-0.20375107
129	0xbd98136f	-0.07425582
130	0x3e3fd13e	0.18732163
131	0x3c1184dc	0.008881774
132	0xbdcebf97	-0.100951366
133	0xbe0d9fce	-0.13830492
134	0xbe28e6d9	-0.16494311
135	0x3e51c272	0.20484331
136	0x3d7d138f	0.06178623
137	0xbb7fb76a	-0.0039019235
138	0x3a9dfe8e	0.0012054013
139	0xbd8a5530	-0.067545295
140	0x3e0efb7d	0.13963123
141	0x3c37ee4a	0.011226246
142	0xbd7fb4d4	-0.06242831
143	0xbd864555	-0.06556193
144	0xbcb9086d	-0.022587026
145	0x3dd76d64	0.105189115
146	0x3daa693c	0.08320853
147	0xbbc35f13	-0.0059622615
148	0xbc23e2d3	-0.01000281
149	0xbd5a37ed	-0.05327599
150	0x3e0cc8c4	0.13748461
151	0x3e273204	0.16327673
152	0x3ce42c7c	0.027853243
153	0x3dafdd61	0.085871466
154	0x3d96c079	0.0736093
155	0xbd6b66d3	-0.057471108
156	0x3d024f23	0.031813752
157	0x3db6d4f7	0.089273386
158	0x3da30e1c	0.079616755
159	0x3d987266	0.07443695
160	0xbdff04d2	-0.12452091
161	0xbd582f1e	-0.05277931
162	0xbca113d2	-0.019662771
163	0x3d0c6af9	0.034281705
164	0x3d7eb0bb	0.062180262
165	0xbe8e0830	-0.27740622
166	0xbe2e0704	-0.16994864
167	0xbe021e69	-0.12706913
168	0x3d45bf06	0.048277877
169	0x3da5bd42	0.08092739
170	0xbe6548c8	-0.22391045
171	0xbe4cf24b	-0.20014302
172	0xbdb1115b	-0.086458884
173	0xbc181775	-0.009282936
174	0x3d7a8729	0.061164055
175	0xbbdda569	-0.006764103
176	0x3ab2bc7f	0.0013636498
177	0x3ca10c11	0.019659074
178	0x3d45f3f3	0.04832835
179	0x3da9758c	0.082743734
180	0x3e5deeba	0.21673098
181	0x3e5fd403	0.2185822
182	0x3e23fbf8	0.16014087
183	0x3dca79cb	0.098865114
184	0x3daedc7f	0.0853815
185	0x3d339da7	0.04385152
186	0x3e6de58f	0.23232101
187	0x3de3a477	0.111153536
188	0x3d8f26b4	0.06989804
189	0xbd35dc95	-0.044399817
190	0x3c9fb548	0.019495621
191	0x3c34bb6a	0.011031011
192	0x3d1a6ffa	0.037704445
193	0xbdbeb3c0	-0.09311628
194	0xbe68075b	-0.22659056
195	0xbe56f444	-0.20991617
196	0xbe31792e	-0.17331383
197	0xbdb8deb4	-0.09026852
198	0xbe9cf5cb	-0.30656275
199	0xbeebf529	-0.4608548
200	0x3da05219	0.07828159
201	0x3d47a715	0.048743326
202	0xbd8add77	-0.06780522
203	0x3c361025	0.011112248
204	0x3dbb05b4	0.09131947
205	0x3dae4f2e	0.08511196
206	0x3db34f42	0.087553516
207	0xbbe287ea	-0.006913175
208	0x3da188e8	0.07887441
209	0x3de662f0	0.112493396
210	0x3e08f8f5	0.1337622
211	0x3dbe2e44	0.09286168
212	0x3d7605e9	0.06006423
213	0x3d830f91	0.063994534
214	0x3daaceb3	0.08340206
215	0x3e11c874	0.14236623
216	0x3d21e3f0	0.03952402
217	0x3d0a4b3d	0.03376316
218	0x3c874edd	0.016517097
219	0x3dedcc1f	0.11611199
220	0x3dd9108d	0.1059886
221	0x3de3e742	0.11128093
222	0x3c074e4f	0.008258416
223	0x3dcf4970	0.10121429
224	0x3e4b8e25	0.19878443
225	0xbdc34f44	-0.09536603
226	0xbe00ab22	-0.12565282
227	0xbe102f8f	-0.14080642
228	0xbd8c1206	-0.06839375
229	0x3cd31e0b	0.025771162
230	0xbdd21982	-0.102587715
231	0xbdc842f8	-0.09778398
232	0xbdf4b129	-0.11947853
233	0xbd89ca24	-0.067280084
234	0x3d14de41	0.03634477
235	0xbcf99059	-0.030464338
236	0x3c266200	0.010155201
237	0xbd09ddfa	-0.03365896
238	0xbcd85a56	-0.026410263
239	0x3dcba262	0.099430814
240	0xbd5859d3	-0.052820038
241	0xbd48e690	-0.049048007
242	0xbdbd3c4f	-0.092400186
243	0xbc52dd71	-0.012870179
244	0x3e0a50fc	0.13507456
245	0xbdebdb53	-0.11516442
246	0xbd534d7b	-0.051587563
247	0xbdf0c686	-0.11756615
248	0xbde5c72f	-0.11219632
249	0xbcc9e816	-0.0246468
250	0x3e9cecd1	0.30649427
251	0x3e80175d	0.25017825
252	0x3d6dfdb4	0.05810328
253	0xbbd12f74	-0.0063838307
254	0x3d2ba7f8	0.041908234
255	0x3dd531c5	0.104098834

const_fold_opt__76 f4 [64, 1, 5, 5]
0	0xbcf9a57a	-0.030474413
1	0x3d48017e	0.048829548
2	0x3d144863	0.036201846
3	0x3b9e8971	0.0048381616
4	0x3d4a6cb6	0.04942008
5	0x3cfa6d27	0.030569626
6	0xbc9038ec	-0.017605267
7	0x3c898d4d	0.01679101
8	0x3d9219d9	0.07133836
9	0x3e05ef3d	0.13079543
10	0x3db0fb2d	0.08641658
11	0xbacdd27a	-0.0015702986
12	0x3d1f128c	0.038836047
13	0x3d0bd4ee	0.034138612
14	0x3ca28b5c	0.019841842
15	0x3d0561c0	0.032563925
16	0x3dfd852d	0.12378917
17	0x3e008606	0.12551126
18	0x3db808ad	0.0898603
19	0x3d87a85c	0.06623909
20	0x3db2f0cb	0.08737334
21	0x3dbc8790	0.09205544
22	0x3dc73bf6	0.097282335
23	0x3e641ab7	0.22275816
24	0x3e548bee	0.20756504
25	0x3d3471f0	0.04405397
26	0x3db22715	0.086988606
27	0x3dceb1fd	0.10092542
28	0x3dcbbd42	0.099482074
29	0xbb8fc525	-0.004387515
30	0xbce2009a	-0.027588177
31	0x3cd3ac68	0.025839046
32	0xbbdc6269	-0.0067255986
33	0xbc48b46b	-0.012250046
34	0xbd0440c3	-0.032288324
35	0x3c3815c0	0.011235654
36	0x3dbffc42	0.09374286
37	0x3d1965a9	0.037450466
38	0x3badcd63	0.005304025
39	0x3d893c05	0.06700901
40	0x3db36051	0.08758605
41	0x3d89ae04	0.06722644
42	0x3e0a3fc2	0.13500884
43	0x3e0eef8f	0.13958572
44	0x3cda1c4a	0.026624817
45	0x3e0440d0	0.12915349
46	0x3dcc165c	0.09965202
47	0x3e29e81f	0.16592453
48	0x3e609980	0.21933556
49	0x3e09f7c1	0.13473417
50	0x3de828de	0.1133592
51	0x3da8e922	0.082475916
52	0x3d03be00	0.03216362
53	0x3d80b5ed	0.062846996
54	0xbd5441e7	-0.051820662
55	0x3e193e92	0.14965275
56	0x3d830065	0.063965596
57	0xbdb91685	-0.090374984
58	0x3c9ff935	0.01952801
59	0xbe08547f	-0.13313483
60	0x3e0e39c1	0.13889219
61	0x3c614620	0.013749629
62	0xbaf57ff9	-0.0018730155
63	0xbcfe15ba	-0.03101622
64	0x3c56a62a	0.01310114
65	0x3e3d0ec3	0.18462662
66	0x3dcf345a	0.10117407
67	0x3ce8072e	0.028323736
68	0x3d864145	0.06555418
69	0x3d58c65c	0.052923545
70	0x3e6fdebc	0.2342481
71	0x3e44229a	0.19153824
72	0x3e15c05e	0.14624164
73	0x3dc08e64	0.09402159
74	0x3e521484	0.20515639
75	0xbe7456e9	-0.23861279
76	0xbde7de66	-0.11321716
77	0xbe05ac4c	-0.13054007
78	0xbdd92515	-0.10602776
79	0xbe7a4f79	-0.24444379
80	0xbbb42fb6	-0.0054988516
81	0xbd2ee8b4	-0.04270239
82	0x3c9ddb6f	0.019269673
83	0xbd4ee9e9	-0.050516043
84	0xbcefdf3f	-0.029281257
85	0xbd02f1eb	-0.031968992
86	0x3da55997	0.080737285
87	0x3db56bbc	0.08858439
88	0x3c9d99d6	0.019238394
89	0xbd4c742f	-0.04991549
90	0xbdb938e8	-0.09044057
91	0x3dddc3fb	0.10828396
92	0x3ddee562	0.10883595
93	0x3d813133	0.06308212
94	0x3d68d804	0.056846634
95	0xbd252f10	-0.040328085
96	0x3d6206fc	0.055182442
97	0x3e1868b7	0.14883696
98	0x3da75620	0.08170724
99	0x3cad2a48	0.021138325
100	0x3e341368	0.17585528
101	0xbcc7765a	-0.024348427
102	0xbe1debc4	-0.15421969
103	0xbe27b14e	-0.1637623
104	0xbe7ae7b8	-0.24502456
105	0x3dcd2e0d	0.10018549
106	0x3b092ad9	0.002093008
107	0xbdd240af	-0.10266244
108	0xbdf983cd	-0.12183342
109	0xbe377758	-0.1791662
110	0x3da73c2e	0.08165775
111	0xbd500c82	-0.05079318
112	0xbd9600a2	-0.073243394
113	0xbc39c680	-0.01133883
114	0xbe253446	-0.16133222
115	0x3ddf3e04	0.109005004
116	0x3d9d319f	0.0767548
117	0xbdafebef	-0.08589923
118	0xbdf4eda8	-0.11959392
119	0xbe4172e5	-0.18891485
120	0x3de3c9fa	0.11122508
121	0xbc850ca7	-0.016241385
122	0xbcf1b68e	-0.029505994
123	0xbe3428a9	-0.17593636
124	0xbe52a563	-0.20570903
125	0xbda6716e	-0.08127104
126	0xbdb1e55a	-0.086863235
127	0xbda11107	-0.07864576
128	0xbc6cee10	-0.014461055
129	0xbdbeaa9a	-0.093098834
130	0xbdc64db8	-0.096827924
131	0xbdb8f77e	-0.090315804
132	0x3c32d980	0.010916114
133	0xbcee67be	-0.029102203
134	0x3d2b929a	0.041887857
135	0xbd8f9ba9	-0.07012112
136	0x3bc2a92e	0.005940578
137	0xbd1e2a6f	-0.038614687
138	0x3c8617bb	0.016368737
139	0xbba6783d	-0.0050802515
140	0xbd92bc22	-0.0716479
141	0xbdab8b67	-0.08376198
142	0xbb887852	-0.004164734
143	0xbc5ffc1c	-0.013670947
144	0xbc7e17f6	-0.015508642
145	0xbd6b25ed	-0.057409216
146	0xbdc077c3	-0.09397843
147	0xbd908194	-0.07055965
148	0xbc7003a5	-0.014649306
149	0xbdc3ab93	-0.095542096
150	0xbd2c262a	-0.042028584
151	0xbd793afe	-0.060847275
152	0xbd95b96d	-0.07310758
153	0xbe73a654	-0.23793918
154	0xbea53146	-0.32264155
155	0x3c983aa8	0.018582657
156	0xbcdb42c4	-0.026765235
157	0xbd59c68c	-0.053167865
158	0xbe4e6507	-0.20155726
159	0xbe7ba1a8	-0.24573386
160	0x3dacf0e6	0.08444385
161	0x3d9ccb8b	0.0765601
162	0xbc161966	-0.009161329
163	0x3c749d4c	0.014930081
164	0xbd7406c7	-0.059576776
165	0x3e1348e8	0.1438328
166	0x3da73af5	0.08165542
167	0x3e0808ee	0.13284656
168	0x3dca686c	0.09883198
169	0x3da02fe3	0.07821634
170	0x3e3baea1	0.18328334
171	0x3e5125b2	0.20424536
172	0x3e8c758f	0.2743344
173	0x3e4d5232	0.20050886
174	0x3e1a67bc	0.15078634
175	0xbbb5ea8a	-0.005551641
176	0x3b0a2db8	0.002108438
177	0x3c3e9985	0.011633282
178	0xbc4d7022	-0.012538942
179	0x3db90719	0.09034557
180	0xbd07ff09	-0.033202205
181	0xbd63e607	-0.055639293
182	0xbc4868cb	-0.012232016
183	0x3d8556d7	0.06510704
184	0x3df58778	0.11988729
185	0x3ccc9e1f	0.024977742
186	0xbdae22d7	-0.08502739
187	0x3c562d63	0.0130723445
188	0x3dc0b6bf	0.09409856
189	0x3df20ebb	0.11819216
190	0x3d411d36	0.047147
191	0x3c0b1d36	0.008490851
192	0x3d88708f	0.06662094
193	0x3e14f340	0.14545918
194	0x3dee2d11	0.116296895
195	0x3e23b4be	0.15986916
196	0x3d423bbd	0.047420252
197	0x3de256cc	0.110517114
198	0x3e15d31e	0.14631316
199	0x3e61308f	0.2199118
200	0xbd46b3b3	-0.04851122
201	0xbd1b99dd	-0.037988532
202	0xbbed6240	-0.0072443783
203	0xbc75cc65	-0.015002345
204	0x3dad2da8	0.08455974
205	0xbb03504b	-0.0020036872
206	0x3d2270eb	0.03965847
207	0x3d467be1	0.048457984
208	0x3da0971e	0.07841323
209	0x3d86f94a	0.06590517
210	0x3cf052be	0.02933633
211	0x3d3706a1	0.044684056
212	0x3d9ae6fc	0.07563588
213	0x3db60ab2	0.08888759
214	0x3e07199d	0.13193364
215	0x3d34bc49	0.044124875
216	0x3dbe5132	0.092928305
217	0x3dca3b27	0.09874564
218	0x3d4f116f	0.050553735
219	0x3e062983	0.13101773
220	0x3d6ca03f	0.05777001
221	0x3e0eb842	0.13937476
222	0x3dcf8b6a	0.10134013
223	0x3d9d6c6e	0.07686697
224	0x3e26eb19	0.1630062
225	0xbdffef92	-0.12496866
226	0xbcce71b9	-0.025200712
227	0x3d5bb7e0	0.053642154
228	0x3c875933	0.016522026
229	0x3dd9e8aa	0.1064008
230	0xbe0010d6	-0.12506422
231	0xbd2aad6e	-0.0416693
232	0x3c42eeb4	0.011897732
233	0xbb534353	-0.0032236173
234	0x3dba1492	0.09085955
235	0xbd21f1ac	-0.039537117
236	0xbd2895f8	-0.041158646
237	0xbbd3d848	-0.0064649917
238	0x3d1d6aab	0.038431805
239	0xbc688ddd	-0.014193979
240	0xbca48b98	-0.020086095
241	0x3d34baab	0.044123333
242	0x3da61b6a	0.081106976
243	0x3e05fd3d	0.13084884
244	0x3cdc92df	0.026925502
245	0x3ddc2520	0.107492685
246	0x3df6004d	0.12011776
247	0x3e545b8f	0.20738052
248	0x3df2397c	0.118273705
249	0x3da6b7e7	0.08140545
250	0xbe5b2a91	-0.21402957
251	0xbdef9197	-0.11697691
252	0xbd67101e	-0.056411855
253	0xbe242e4f	-0.1603329
254	0xbe568563	-0.2094932
255	0xbe0b5211	-0.13605525

const_fold_opt__75 f4 [7, 1, 5, 5]
0	0x3e09fe05	0.13475807
1	0x3c5ff128	0.013668336
2	0x3d6313f4	0.05543895
3	0x3d5cc773	0.053901147
4	0x3cc4d963	0.02402944
5	0xbdf4af4f	-0.119475
6	0x3d981540	0.07425928
7	0x3dcd2dba	0.10018487
8	0xbd91a6a2	-0.07111861
9	0xbd626d31	-0.055279914
10	0x3ccbbeeb	0.02487131
11	0x3e5bb041	0.21453954
12	0xbd1942c3	-0.037417185
13	0x3d643517	0.055714693
14	0x3d10094e	0.035165124
15	0x3e2cb639	0.16866387
16	0x3dbdb525	0.09263066
17	0xbdded358	-0.10880154
18	0xbd770aff	-0.06031322
19	0x3cab3506	0.020899307
20	0x3d9822e0	0.07428527
21	0xbd27ca6a	-0.04096452
22	0x3cd15d59	0.025557207
23	0xbc370bc7	-0.0111722415
24	0xbe07aff7	-0.13250719
25	0x3e414182	0.18872645
26	0x3cff8ee6	0.031196069
27	0x3d38618c	0.045014903
28	0x3e27f517	0.16402088
29	0x3e27f625	0.1640249
30	0xbbeb21b5	-0.007175649
31	0x3dd35271	0.10318459
32	0x3d95e0d9	0.07318277
33	0x3c57d834	0.013174105
34	0x377716c0	1.4727644e-05
35	0x3b830a9a	0.0039990665
36	0x3e5ac166	0.21362838
37	0x3de34996	0.1109802
38	0x3c895061	0.01676196
39	0x3c0f32b6	0.008740118
40	0x3cc895d9	0.024485515
41	0x3d639465	0.055561442
42	0x3ddad391	0.10684884
43	0x3dab8144	0.08374265
44	0x3e251b00	0.16123581
45	0xbd9e35ab	-0.0772508
46	0xbe0c7b3f	-0.1371889
47	0x3e126f26	0.14300212
48	0xbc2d0f42	-0.01056272
49	0x3c6feaf2	0.014643418
50	0x3dd7b1fa	0.10531993
51	0xbddec7b5	-0.10877935
52	0x3e108844	0.14114481
53	0x3e857e53	0.2607294
54	0x3e7ab540	0.24483204
55	0x3d5ff2de	0.054674976
56	0xbcedf644	-0.029048093
57	0x3c90b76d	0.01766559
58	0x3e1cd996	0.15317377
59	0x3c73f943	0.014890972
60	0xbd9688be	-0.073503
61	0x3cc506e0	0.02405113
62	0x3c9d493c	0.01919996
63	0x3e67e71d	0.22646756
64	0x3e694aac	0.22782391
65	0x3e1e8abe	0.15482613
66	0x3e2e9452	0.17048767
67	0x3e2e539d	0.17024083
68	0x3de85362	0.11344029
69	0x3e4129e0	0.1886363
70	0x3b9c4ee6	0.0047701476
71	0xbdae9bc3	-0.08525803
72	0x3d5c62d8	0.053805202
73	0xbd6933ed	-0.056934286
74	0x3db45f26	0.088072106
75	0x3cdc6aad	0.026906336
76	0x3d44e73d	0.04807209
77	0x3dccff89	0.10009677
78	0x3e3824f0	0.1798284
79	0xbdbd90ea	-0.09256156
80	0xbe5831b0	-0.21112704
81	0xbd0724ef	-0.032994207
82	0xbe1e9259	-0.15485515
83	0xbe2982ac	-0.16553754
84	0xbbf8e89d	-0.007596089
85	0x3dc3c37f	0.09558772
86	0xbe2ae721	-0.16689731
87	0x3d15e541	0.036595587
88	0x3e0d057b	0.13771622
89	0x3d09881c	0.03357707
90	0xbda8eb27	-0.08247977
91	0xbcb54fc2	-0.022132758
92	0x3d23155c	0.03981529
93	0x3df79625	0.12089185
94	0x3d297b0c	0.041377112
95	0x3d9be1bc	0.07611415
96	0x3d6d1d0a	0.057889022
97	0x3e3453b4	0.17610055
98	0x3e3d712b	0.18500201
99	0xbe11eba0	-0.1425004
100	0x3dfb31a8	0.122653306
101	0xbce2fff0	-0.027709931
102	0x3e699ace	0.2281296
103	0x3cb2fa5b	0.021847894
104	0x3dd51840	0.10405016
105	0x3dee1d05	0.11626629
106	0x3e14f78f	0.14547561
107	0x3e444b80	0.19169426
108	0x3e819f61	0.2531691
109	0x3e748102	0.23877338
110	0xbdff7977	-0.124743395
111	0xbe3d443e	-0.18483064
112	0xbdc8b7e2	-0.09800698
113	0xbe082a0e	-0.13297293
114	0xbe09e767	-0.13467179
115	0xbe1c4ae4	-0.15262944
116	0xbe171e9e	-0.14757773
117	0x3e65f6dc	0.2245745
118	0x3e0dc112	0.13843182
119	0xbd2f7f6f	-0.04284614
120	0xbb8be7e5	-0.0042695873
121	0xbcfb4206	-0.03067113
122	0x3e99a72c	0.30010355
123	0x3e9f9b3a	0.31173116
124	0x3e0de0ab	0.13855235
125	0xbed2a669	-0.41142586
126	0xbd220ef0	-0.039565027
127	0xbea48091	-0.32129338
128	0x3e113d06	0.14183435
129	0xbeddaf0a	-0.43297607
130	0xbe84defa	-0.25951368
131	0x3db37929	0.08763344
132	0xbe1ccf4d	-0.15313454
133	0xbdc584c0	-0.09644461
134	0xbe97f36f	-0.29677913
135	0xbe497118	-0.19672048
136	0xbe5534a0	-0.20820856
137	0xbe306655	-0.17226537
138	0xbe26cc97	-0.16288982
139	0x3e9084d6	0.28226346
140	0x3b538f0e	0.0032281312
141	0x3ba629a6	0.005070883
142	0xbea03bb5	-0.31295553
143	0xbea380c9	-0.31934193
144	0x3e0172a0	0.12641382
145	0x3e53ea2f	0.20694803
146	0x3db89594	0.09012905
147	0xbeeab40d	-0.45840493
148	0xbed16c9e	-0.4090318
149	0x3dd89591	0.105754025
150	0x3eb8b9bc	0.36079204
151	0x3ecffaec	0.40621126
152	0x3edf2df9	0.43589762
153	0xbd569f54	-0.05239804
154	0x3f07b673	0.5301277
155	0x3e415f02	0.18883899
156	0x3dc5583e	0.096359715
157	0x3dfedd5d	0.124445654
158	0x3e82fe40	0.25584602
159	0x3db134db	0.086526595
160	0x3dff82bc	0.124761075
161	0x3dcc033e	0.09961556
162	0x3e6da747	0.23208342
163	0x3e1eced3	0.15508585
164	0x3d0fed82	0.035138614
165	0x3dd5e1be	0.104434475
166	0x3e761516	0.24031481
167	0x3e8493c8	0.25893998
168	0x3eb4914c	0.35267103
169	0xbe088e74	-0.13335592
170	0x3ecb5433	0.39712676
171	0x3eb2f0df	0.34949395
172	0x3e8b6ee0	0.27233028
173	0x3ec1ba1c	0.37837303
174	0x3eb57664	0.35441887

const_fold_opt__74 f4 [64, 1, 5, 5]
0	0xbd85ff06	-0.065427825
1	0xbe1ab88a	-0.15109459
2	0xbdb8303c	-0.08993575
3	0xbcb10bff	-0.021612165
4	0x3cf8b801	0.030361177
5	0xbdd1e571	-0.102488406
6	0xbd16ee7b	-0.036848526
7	0x3d6d04d4	0.057865933
8	0xbc79d014	-0.015247364
9	0x3d1adc42	0.03780771
10	0xbcf57b83	-0.029966122
11	0x3d3dc468	0.046329886
12	0x3d3383ae	0.04382675
13	0x3d95647d	0.07294557
14	0x3dd27a7f	0.102772705
15	0xbd8e8589	-0.069590636
16	0x3c358079	0.011077994
17	0x3d911afe	0.070852265
18	0xbbcdca44	-0.0062802155
19	0x3b958661	0.0045631384
20	0xbd9361c6	-0.07196383
21	0x3cd2f589	0.025751846
22	0xbb0efd4a	-0.0021818453
23	0xbc88fac3	-0.016721135
24	0xbc56dd0a	-0.013114223
25	0xbc0fce69	-0.008777239
26	0x3d088bc5	0.03333642
27	0xbd7cd8e0	-0.061730266
28	0xbda96e08	-0.0827294
29	0xbd6d9409	-0.058002505
30	0xbd7c9cc9	-0.06167296
31	0x3d0af28a	0.03392271
32	0xbd52ce0e	-0.05146604
33	0x3d09cfc3	0.033645403
34	0xbb0a4863	-0.0021100275
35	0xbd138558	-0.03601584
36	0x3d94b61e	0.072612986
37	0x3dc31f35	0.09527437
38	0x3d6a6d4a	0.057233132
39	0xbc30c035	-0.010788013
40	0x3c98d810	0.018657714
41	0x3c1211ca	0.008915374
42	0x3da97a70	0.08275306
43	0x3d7d092f	0.061776336
44	0x3d4bb364	0.049731627
45	0x3d25d8c6	0.040489934
46	0x3dc966d0	0.09834063
47	0x3cfbc847	0.030735148
48	0x3df9fb84	0.12206176
49	0x3d983c74	0.074334055
50	0xbe08dd69	-0.13365711
51	0xbe685e8b	-0.22692315
52	0xbe8501cb	-0.2597793
53	0xbe50140f	-0.20320152
54	0xbe713935	-0.23556979
55	0x3c1e582b	0.009664576
56	0xbcdecb3d	-0.027196521
57	0xbd7ae970	-0.06125778
58	0xbe1e1106	-0.15436181
59	0xbe704da4	-0.23467118
60	0x3d3a7d13	0.045529436
61	0xbd0242a6	-0.031801842
62	0xbdb15314	-0.08658424
63	0xbdbf3e7b	-0.09338089
64	0xbe5d69f9	-0.21622457
65	0x3c75bfd1	0.014999346
66	0xbd467fd7	-0.04846176
67	0xbdefb154	-0.117037445
68	0xbe5002e9	-0.2031361
69	0xbe5a5816	-0.21322665
70	0x3d246693	0.040136885
71	0xbd133c3d	-0.03594612
72	0xbe3a80cf	-0.18213199
73	0xbe493999	-0.19650878
74	0xbe9c54cc	-0.30533445
75	0x3e0a27ca	0.13491741
76	0xbdd2169f	-0.10258221
77	0xbde77540	-0.113016605
78	0xbe1fa7a8	-0.155913
79	0xbe49dc72	-0.19713
80	0xbc59e637	-0.013299516
81	0xbe53fcb5	-0.20701869
82	0xbd3dfc30	-0.046383083
83	0xbe42c868	-0.19021761
84	0xbe83abae	-0.2571692
85	0xbdb48f54	-0.088164
86	0xbcabe3d2	-0.020982657
87	0xbd19b6de	-0.03752791
88	0xbe1c17ec	-0.152435
89	0xbe3d759d	-0.18501897
90	0xbe3363b3	-0.17518501
91	0xbe4035e8	-0.18770564
92	0xbe856996	-0.26057118
93	0xbe42dc9e	-0.19029471
94	0xbd01578e	-0.03157764
95	0xbdd0476f	-0.10169875
96	0xbcbd2483	-0.0230887
97	0xbda5a2fe	-0.08087729
98	0xbdfaa1b0	-0.12237871
99	0xbde71549	-0.11283357
100	0xbce14425	-0.027498314
101	0x3c869285	0.016427288
102	0x3d378620	0.044805646
103	0x3d812724	0.063062936
104	0x3ca18ab6	0.019719463
105	0xbd808dd3	-0.06277051
106	0x3d597778	0.05309245
107	0x3db92ec0	0.0904212
108	0x3cdce23e	0.02696335
109	0xbb557e8e	-0.0032576653
110	0xbc540c64	-0.012942407
111	0xbcaa561f	-0.020793019
112	0xbc9912ea	-0.018685777
113	0xbd171b2f	-0.03689116
114	0x3cb062ee	0.021531548
115	0x3ca8fbd7	0.0206279
116	0xbbb9d2b7	-0.005670871
117	0x3ce499ad	0.02790531
118	0xbc182869	-0.009286978
119	0xbc2f6f62	-0.010707708
120	0x3d1c7ed1	0.03820688
121	0x3d184ea5	0.037184376
122	0xbd22706d	-0.039658
123	0xbd2b5827	-0.041832116
124	0xbd62bd27	-0.05535617
125	0xbd29cc16	-0.041454397
126	0xbcc63ecc	-0.024199866
127	0x3da1ad45	0.07894377
128	0x3d9a4f68	0.07534677
129	0x3cf69544	0.030100472
130	0xbd94b2b1	-0.07260645
131	0x3cedb918	0.029018924
132	0x3ccdc533	0.025118446
133	0x3ca41197	0.020027919
134	0x3db20837	0.08692973
135	0xbdf14983	-0.117815994
136	0xbdc07fa9	-0.09399349
137	0x3c3b146b	0.011418442
138	0x3b9537be	0.004553764
139	0x3daf6e26	0.08565931
140	0xbdca1bca	-0.098685816
141	0xbe09fdcb	-0.1347572
142	0xbd4f0a9d	-0.05054723
143	0x3c847ca5	0.016172716
144	0x3dfb6d5a	0.122767165
145	0xbe269f98	-0.16271818
146	0xbdf15f8c	-0.11785802
147	0xbdc780ad	-0.0974134
148	0xbd21a993	-0.03946836
149	0x3d21491a	0.039376356
150	0x3da69492	0.08133806
151	0x3e7fa06d	0.24963541
152	0x3e9716b3	0.29509506
153	0x3e6ef829	0.23336853
154	0x3e883bc0	0.26608086
155	0x3ba0e269	0.0049098027
156	0x3e0641d6	0.13111052
157	0x3e5c2880	0.21499825
158	0x3e7ccb17	0.24686848
159	0x3e3ec613	0.18630247
160	0x3ddff049	0.10934503
161	0x3d583ce8	0.05279246
162	0x3e2e3fad	0.17016478
163	0x3e58dbb7	0.21177565
164	0x3e4ff24e	0.20307276
165	0x3d486425	0.04892363
166	0x3dafb211	0.08578885
167	0x3db92b26	0.09041433
168	0x3e4cb0de	0.19989344
169	0x3e2e190d	0.17001744
170	0x3e2823e9	0.16419949
171	0x3e33f7f3	0.17575054
172	0x3e0450cc	0.12921447
173	0x3e868c24	0.26278794
174	0x3e923579	0.2855642
175	0x3e3820d0	0.17981267
176	0x3e861ff0	0.2619624
177	0x3e5e87b6	0.21731457
178	0x3e949b41	0.290247
179	0x3e3a47fa	0.1819152
180	0x3e24d97e	0.16098592
181	0x3da59f63	0.08087041
182	0x3e0f8b29	0.14017929
183	0x3d9d98b4	0.076951414
184	0x3b5cc1c1	0.0033684822
185	0x3ce12314	0.027482547
186	0x3d83e4dd	0.064401366
187	0x3e0f5b3f	0.13999651
188	0x3d61bc4f	0.055111226
189	0x3d9a145e	0.07523416
190	0x3deda8bf	0.116044514
191	0x3de3aaab	0.11116537
192	0x3e140f18	0.14458883
193	0x3e1806fc	0.14846414
194	0x3cba6f29	0.022758083
195	0x3e2a638f	0.16639541
196	0x3e81fdda	0.25388986
197	0x3e4989b7	0.1968144
198	0x3e0cf261	0.13764335
199	0x3e2b02ab	0.16700236
200	0xbd80abe5	-0.06282786
201	0xbe2ab7a4	-0.16671616
202	0xbe0fb080	-0.14032173
203	0xbe47e0fd	-0.1951942
204	0xbe6696bb	-0.22518437
205	0x3cb0d4e7	0.021585895
206	0xbdd286d1	-0.102796204
207	0xbd816e18	-0.06319827
208	0xbdbeaebe	-0.09310673
209	0xbe107278	-0.14106166
210	0x3dbde9df	0.09273123
211	0xbda3c85d	-0.07997201
212	0xbcd23804	-0.025661476
213	0x3cb17f2a	0.021667082
214	0x3cd9f934	0.026608087
215	0x3c7a8593	0.015290636
216	0x3cc22fef	0.023704497
217	0x3c23cb16	0.00999715
218	0x3d059b0d	0.03261857
219	0x3d42a751	0.047522847
220	0x3d8c3822	0.06846644
221	0x3cfe2222	0.031022135
222	0xbbf2f332	-0.007414245
223	0x3d7b6bc2	0.061382063
224	0x3e4860c2	0.1956816
225	0x3c528758	0.012849651
226	0x3e05832f	0.13038324
227	0x3de97ed7	0.11401146
228	0x3dac0cef	0.084009044
229	0x3d1063fe	0.03525161
230	0xbd094029	-0.033508454
231	0x3d6ef343	0.05833746
232	0x3dd37805	0.10325626
233	0x3c9b3acb	0.018948933
234	0xbd1e47d1	-0.03864271
235	0xbc9439de	-0.018094
236	0x3d02dba0	0.031947732
237	0x3df11b01	0.11772729
238	0x3d13fcd0	0.036129773
239	0xbd4419e1	-0.047876243
240	0xbcab3c0d	-0.020902658
241	0xbc3df3ed	-0.011593801
242	0xbc99f00f	-0.018791227
243	0xbcc9b031	-0.024620147
244	0xbdd1670e	-0.10224734
245	0xbd6b18bd	-0.05739664
246	0xbcf30b29	-0.029668408
247	0x3a9ed34b	0.0012117414
248	0xbd991ba1	-0.07475973
249	0xbdd5875e	-0.1042621
250	0xbd714cd4	-0.05891116
251	0xbde76f15	-0.11300484
252	0xbd2e22c2	-0.042513616
253	0xbdfb7902	-0.1227894
254	0x3cd90b78	0.026494727
255	0x3d4147ea	0.047187723

const_fold_opt__73 f4 [16, 1, 5, 5]
0	0x3c6f4d63	0.014605853
1	0xbd6adbc3	-0.057338487
2	0x3d651fa1	0.055938367
3	0xbdcc3d5a	-0.099726394
4	0xbe98e778	-0.29864097
5	0xbe26a6fe	-0.1627464
6	0x3df4e417	0.11957567
7	0x3d5a0c8c	0.053234622
8	0xbdeae6a3	-0.11469772
9	0xbdf48ec8	-0.11941296
10	0xbde5af35	-0.11215059
11	0x3e02c5d9	0.12770785
12	0x3e2bd26a	0.16779485
13	0x3d33d43b	0.04390357
14	0xbcc4e3d2	-0.024034414
15	0xbc428e51	-0.011874751
16	0x3d3213ab	0.043475788
17	0x3e3b092a	0.18265215
18	0x3dc34588	0.095347464
19	0xbe349250	-0.17633939
20	0x3dcc0b02	0.09963037
21	0x3d944720	0.072401285
22	0x3e17cb11	0.14823557
23	0xbde480c6	-0.11157374
24	0xbe793c07	-0.24339305
25	0x3e2b2938	0.16714942
26	0x3d4d4791	0.05011708
27	0xbd517b95	-0.051143248
28	0xbdde08b9	-0.108415075
29	0xbe607152	-0.21918228
30	0x3e240d39	0.16020669
31	0x3d2952b8	0.041338652
32	0x3d721fa4	0.059112206
33	0x3d5e7fad	0.05432098
34	0xbcf66b7c	-0.03008055
35	0x3edca4a9	0.43094376
36	0x3e4ba4f5	0.19887145
37	0x3e34b1ef	0.17646001
38	0xbe02f747	-0.12789641
39	0xbe55e722	-0.20888951
40	0x3e8e7c44	0.27829182
41	0x3e1308de	0.14358851
42	0x3e090144	0.13379389
43	0xbd6a129b	-0.05714665
44	0xbda7c308	-0.08191496
45	0x3e903999	0.28168944
46	0x3df0f34b	0.117651545
47	0x3e449079	0.19195737
48	0xbc373f54	-0.011184532
49	0xbe207e5b	-0.15673201
50	0xbccc4c35	-0.024938682
51	0x3ce2ddc2	0.027693633
52	0xbd8e3c60	-0.06945109
53	0xbde5383b	-0.11192366
54	0xbd7863c1	-0.060642008
55	0x3d068373	0.032840203
56	0xbd74f701	-0.059805874
57	0xbd909a85	-0.07060722
58	0xbe310922	-0.1728864
59	0x3da197cd	0.07890282
60	0xbd389666	-0.045065306
61	0xbca2e2ea	-0.019883592
62	0xbda03cc4	-0.0782409
63	0xbdc61534	-0.09672013
64	0xbcdb1d2c	-0.026747309
65	0xbd1b0878	-0.037849873
66	0xbd4f9121	-0.050675515
67	0xbe55bc02	-0.208725
68	0xbcda57d3	-0.026653206
69	0xbd198672	-0.037481733
70	0xbd2c4675	-0.04205938
71	0xbd2dc0b2	-0.042420097
72	0xbe643a2c	-0.22287816
73	0xbe5ba407	-0.2144929
74	0xbbfbaeb6	-0.0076807393
75	0x3e4dec2a	0.2010962
76	0x3d92d164	0.07168844
77	0xbde7db52	-0.11321129
78	0x3dbdabe0	0.09261298
79	0x3e4a508c	0.19757289
80	0x3cb754bc	0.022379272
81	0xbe02b596	-0.12764582
82	0xbe710479	-0.23536862
83	0xbe9a3e98	-0.3012588
84	0xbd37fdb0	-0.04491967
85	0xbb3f1b8a	-0.0029160702
86	0xbe1085ab	-0.1411349
87	0xbec66728	-0.38750577
88	0xbeaf9e88	-0.34300637
89	0xbd7c8f3d	-0.06166004
90	0x3d29fe5e	0.04150235
91	0xbd94a9d5	-0.072589554
92	0xbe9e1b19	-0.3088005
93	0xbe95c019	-0.2924812
94	0xbab7c2ca	-0.0014019844
95	0x3e79e1c1	0.24402525
96	0x3d38a4af	0.04507893
97	0x3d92b950	0.07164252
98	0xbcf6831f	-0.03009182
99	0x3e5f3f99	0.21801604
100	0x3e6048e2	0.21902803
101	0x3d3a136e	0.045428686
102	0x3e56ccbe	0.2097654
103	0x3d8eda7e	0.06975268
104	0x3df82bfe	0.12117766
105	0x3dff144b	0.124550425
106	0x3e2cb1c6	0.1686469
107	0x3e64928f	0.22321533
108	0x3e595756	0.21224722
109	0x3d945e3b	0.072445355
110	0x3e12e293	0.14344244
111	0x3d5e3a0e	0.054254584
112	0x3d177925	0.036980767
113	0xbbe3caa3	-0.0069516464
114	0xbdd94724	-0.10609272
115	0xbcfd1f4c	-0.030898713
116	0xbddd4433	-0.108040236
117	0x3d120c2d	0.035656143
118	0xbd22b75b	-0.039725643
119	0xbc77dbf1	-0.015128122
120	0xbbcacaa5	-0.006188708
121	0xbe2fbd86	-0.17162141
122	0xbd84f203	-0.064914726
123	0xbd6f47f6	-0.058418237
124	0xbb936d5e	-0.0044991216
125	0xbe372e33	-0.17888717
126	0xbdba6b53	-0.09102502
127	0xbdcc6297	-0.09979742
128	0xbd16aa11	-0.03678328
129	0x3c6b5542	0.014363589
130	0xbe00efe7	-0.12591515
131	0x3d1dd05f	0.038528796
132	0xbe09b234	-0.13446885
133	0x3cee14a7	0.029062582
134	0xbcd3fc37	-0.025877101
135	0xbd84d35e	-0.064856276
136	0x3c349815	0.011022587
137	0x3dafa218	0.08575839
138	0x3ca293c4	0.01984585
139	0x3e64bb2f	0.2233703
140	0xbdad3013	-0.08456435
141	0xbd1738d2	-0.036919422
142	0x3d54b9de	0.05193507
143	0xbc8af873	-0.016964173
144	0x3df3790f	0.118883245
145	0xbde1452a	-0.1099952
146	0x3c4da7be	0.0125522
147	0xbda7ccfe	-0.08193396
148	0xbd6715c3	-0.056417238
149	0x3e1868b2	0.14883688
150	0xbd58edbe	-0.052961104
151	0xbc834a57	-0.016026659
152	0x3e66b588	0.22530186
153	0x3e976fad	0.2957739
154	0x3e646fee	0.22308323
155	0x3d88773b	0.066633664
156	0xbc234db0	-0.009967253
157	0x3e5cc391	0.21558978
158	0x3e5724ae	0.21010086
159	0xbd6375c4	-0.055532232
160	0x3d3dc8ec	0.046334192
161	0x3de09fe6	0.10967998
162	0x3c7185a5	0.014741336
163	0x3e1d6d36	0.15373692
164	0x3d21a8d3	0.039467644
165	0x3cb849b6	0.022496086
166	0xbd7e95a9	-0.062154446
167	0x3d072e37	0.03300306
168	0x3cbefd31	0.02331409
169	0xbd85d2e8	-0.06534368
170	0xbd21f598	-0.039540857
171	0x3e28cb39	0.16483773
172	0x3e4acb8a	0.19804206
173	0x3e1e0c63	0.15434413
174	0xbda89aed	-0.08232675
175	0xbe56000c	-0.20898455
176	0xbd73f07e	-0.059555523
177	0x3bbc57f2	0.0057477886
178	0xbda95b24	-0.08269337
179	0xbd72dbc6	-0.059291624
180	0xbd1eec5c	-0.03879963
181	0x3c7d8ec2	0.015475931
182	0x3cfffdb0	0.031248897
183	0x3d56c5c8	0.052434713
184	0xbe27ea52	-0.1639798
185	0xbe477da0	-0.19481516
186	0x3ce93374	0.028466918
187	0x3a61d3fd	0.00086146576
188	0xbdbe0cf8	-0.09279817
189	0x3c421b97	0.011847398
190	0xbe27bfa6	-0.16381702
191	0xbe28ddaa	-0.16490808
192	0xbdb9713f	-0.09054803
193	0x3cae31aa	0.021263916
194	0xbe50a1fe	-0.20374295
195	0xbd457dae	-0.04821556
196	0xbe1c92ba	-0.15290347
197	0xbdc9277c	-0.09821984
198	0xbe483ab6	-0.19553646
199	0xbe40966f	-0.18807386
200	0x3cf1a7c2	0.029498938
201	0x3db104fe	0.0864353
202	0x3d1007e5	0.03516378
203	0x3d13a6e1	0.03604782
204	0x3de73503	0.11289408
205	0xbcf9fcdc	-0.03051608
206	0x3d972255	0.07379595
207	0x3dab05d8	0.08350724
208	0x3d9e5963	0.07731893
209	0x3d757a8b	0.05993132
210	0xbd0dc2b4	-0.03460951
211	0x3d3808d6	0.0449303
212	0x3d369cb4	0.044583037
213	0x3d3a5dc0	0.045499563
214	0x3d7553fb	0.059894543
215	0x3daf29fd	0.085529305
216	0x3dac7ea7	0.084225945
217	0xbca0b766	-0.019618701
218	0xbbd52da0	-0.006505683
219	0x3e0d0627	0.13771878
220	0xbd4277b7	-0.04747745
221	0x3c385a9e	0.011252074
222	0x3d09c6e9	0.03363696
223	0x3c054a90	0.008135453
224	0x3e0d36ce	0.13790438
225	0x3df7d225	0.12100629
226	0xba001ee6	-0.0004887417
227	0xbd92ffa9	-0.071776696
228	0xbe5437da	-0.2072443
229	0xbe7b57d6	-0.24545226
230	0x3e2d49d5	0.16922696
231	0x3c841a90	0.016125947
232	0x3d2f18ff	0.042748448
233	0xbd6fc7a9	-0.05854002
234	0xbe3c485a	-0.18386975
235	0x3db979af	0.090564124
236	0x3e089b6c	0.13340539
237	0xbd7f8324	-0.062380925
238	0xbe3573bf	-0.17719935
239	0xbe84da3d	-0.25947753
240	0x3e006574	0.12538701
241	0x3d701fae	0.058623962
242	0xbd276d8d	-0.04087596
243	0xbe10405f	-0.14087056
244	0xbe24e853	-0.1610425
245	0x3e63aea3	0.22234587
246	0x3e23e655	0.16005833
247	0x3d0fd1d1	0.035112206
248	0xbd86c922	-0.06581332
249	0xbb9dab0c	-0.00481165
250	0x3d09ecdd	0.033673156
251	0xbd889833	-0.06669655
252	0x3cd24adc	0.025670461
253	0x3d9a9ce5	0.075494565
254	0xbc5a4a37	-0.013323358
255	0x3d913497	0.07090109

const_fold_opt__72 f4 [64, 1, 5, 5]
0	0xbe68fb5d	-0.22752137
1	0xbeb3aae4	-0.35091317
2	0xbec6980d	-0.3878788
3	0xbe9e9fce	-0.30981296
4	0xbe7dc2ec	-0.24781388
5	0xbe12fa77	-0.14353357
6	0xbe4ae24a	-0.19812885
7	0xbe7497c8	-0.23886025
8	0xbe3a75c4	-0.18208987
9	0xbddb8a88	-0.10719782
10	0xbe0980e6	-0.13428077
11	0xbe0f5bcf	-0.13999866
12	0xbe586707	-0.21133052
13	0xbe2b6b9a	-0.16740265
14	0xbdfc74d2	-0.12326969
15	0xbddf7090	-0.109101415
16	0xbe775e08	-0.24156964
17	0xbe728f78	-0.23687541
18	0xbe4f126c	-0.20221871
19	0xbe38bdc1	-0.18041135
20	0xbe1484cc	-0.14503783
21	0xbe74df7b	-0.23913376
22	0xbe493c6a	-0.19651952
23	0xbe4db780	-0.20089531
24	0xbe598106	-0.21240625
25	0x3e04adac	0.12956876
26	0x3ebac866	0.36481017
27	0x3eb9dd6b	0.3630174
28	0x3ec3d9b1	0.38252023
29	0x3ea28a1e	0.31746
30	0x3da50d93	0.0805923
31	0x3dfea840	0.12434435
32	0x3db15360	0.08658481
33	0x3db4505d	0.088043906
34	0x3d11df03	0.03561307
35	0x3d2872bc	0.041125044
36	0x3dac2fb0	0.08407533
37	0xbcab628b	-0.020921012
38	0xbcfd7c33	-0.030943012
39	0xbd76264c	-0.060095116
40	0x3e890355	0.26760355
41	0x3e669a56	0.22519812
42	0x3dbb3eb5	0.0914282
43	0x3ddb4d91	0.10708154
44	0xbc766c67	-0.015040494
45	0x3ed94504	0.42435467
46	0x3ec76e67	0.38951418
47	0x3eb84d5e	0.35996526
48	0x3e895359	0.26821402
49	0x3e93faab	0.28902182
50	0xbd721ae6	-0.059107684
51	0xbd2a9462	-0.041645415
52	0x3d08be44	0.033384576
53	0xbb0639cc	-0.0020481227
54	0x3cb9e8cf	0.02269402
55	0xbdd7f6de	-0.10545133
56	0x3d623a70	0.05523151
57	0x3cd18945	0.02557815
58	0x3dc63c58	0.096794784
59	0x3e072abd	0.13199897
60	0xbd9898e9	-0.0745104
61	0xbd14f4c2	-0.03636623
62	0xbd457967	-0.04821148
63	0x3db56dff	0.08858871
64	0x3d9d44cd	0.07679138
65	0xbd119465	-0.03554191
66	0xbdbc1dca	-0.09185369
67	0xbcdbe4ef	-0.026842562
68	0x3d112c72	0.035442777
69	0x3c0bf5b9	0.008542472
70	0xbda7fa95	-0.082020916
71	0xbcdc815f	-0.026917158
72	0xbd807d62	-0.06273915
73	0x3d68ce13	0.056837153
74	0x3d472dcd	0.048627663
75	0x3d9293b3	0.07157078
76	0xbc5d09a0	-0.013491064
77	0xbcdfeb3e	-0.027333852
78	0xbdca2e93	-0.098721646
79	0xbe7ebf0b	-0.24877565
80	0x3d4ab256	0.04948648
81	0xbd420353	-0.04736645
82	0xbd2ed252	-0.042681046
83	0xbe599b47	-0.2125064
84	0xbe2aa073	-0.16662769
85	0x3cf0069b	0.029300025
86	0xbdd3abd5	-0.10335509
87	0xbd6eb022	-0.058273442
88	0xbe38a37d	-0.18031116
89	0xbe5ad973	-0.21372013
90	0xbd9154ed	-0.070962764
91	0xbd38c126	-0.045106076
92	0xbd4696e2	-0.048483737
93	0xbe1d9f57	-0.15392815
94	0xbe43017e	-0.19043538
95	0xbd753a9a	-0.05987034
96	0xbb947531	-0.004530572
97	0xbd3cbfa3	-0.046081197
98	0xbd927084	-0.07150367
99	0xbda02c27	-0.078209214
100	0x3d12c99b	0.035836797
101	0xbd84c1a2	-0.06482245
102	0xbd83a7f9	-0.064285226
103	0xbcfa2f17	-0.030540032
104	0xbd52d4d0	-0.051472485
105	0xbd48b981	-0.049005035
106	0xbce5e867	-0.02806492
107	0x3d3d7100	0.046250343
108	0x3d7ca8b7	0.061684337
109	0xbc1b21a7	-0.009468473
110	0xbce95e8d	-0.028487468
111	0xbdd0bdcc	-0.10192451
112	0xbc89fe59	-0.016844915
113	0x3d639613	0.055563044
114	0x3d8907a4	0.066909105
115	0xbe856547	-0.2605383
116	0xbe44fc9d	-0.1923699
117	0xbe115c39	-0.14195336
118	0xbdded2f8	-0.10880083
119	0xbd7403c1	-0.059573893
120	0xbe9bb3f0	-0.3041072
121	0xbeb5e9c3	-0.3552991
122	0xbe9034a2	-0.28165156
123	0xbe90ad75	-0.28257337
124	0xbe5680e9	-0.20947613
125	0x3df39868	0.118943036
126	0xbc08da6e	-0.008352859
127	0x3db40610	0.08790219
128	0xbc0b0167	-0.008484221
129	0xbd055867	-0.03255501
130	0x3c862346	0.016374242
131	0x3c4f2f10	0.012645498
132	0xbd67e905	-0.05661871
133	0xbd4025ee	-0.046911173
134	0xbe1c1456	-0.15242133
135	0x3e18acd9	0.14909686
136	0x3de202ae	0.11035667
137	0x3db57a70	0.08861244
138	0xbc3d960a	-0.011571417
139	0xbdc9c74b	-0.09852465
140	0x3d9ca67b	0.07648941
141	0x3dfb0fab	0.12258848
142	0x3d50e3a9	0.050998364
143	0xba977214	-0.0011554384
144	0xbcb4a235	-0.022050003
145	0xbd967740	-0.07346964
146	0xbda12fd3	-0.0787045
147	0xbdb09ec4	-0.08624032
148	0xbe1c26bb	-0.1524915
149	0xbde5f5fe	-0.1122856
150	0xbe4916b1	-0.19637562
151	0xbdd7f2dd	-0.10544369
152	0xbe6c710f	-0.23090003
153	0xbe2848c2	-0.16434005
154	0xbdd66e24	-0.104702264
155	0xbde60db8	-0.112330854
156	0xbe126866	-0.14297637
157	0xbe062c72	-0.13102892
158	0xbd849e41	-0.06475497
159	0xbd53e719	-0.051734064
160	0xbcbfd0d9	-0.023415016
161	0x3d3b075a	0.045661308
162	0xbd2214d3	-0.03957064
163	0x3c7bd9fc	0.015371796
164	0x3c5ba0f6	0.013405075
165	0xbc069d78	-0.008216254
166	0x3d36044c	0.04443769
167	0x3df8616f	0.12127959
168	0x3da80897	0.082047634
169	0x3db66fbe	0.08908032
170	0x3dc6463e	0.096813664
171	0x3e35d237	0.17755972
172	0x3e6d64fb	0.23183052
173	0x3e142624	0.14467674
174	0x3e63ab3e	0.22233292
175	0x3cdc4924	0.026890345
176	0x3c0ee274	0.008720983
177	0x3dba6d34	0.0910286
178	0x3d11073c	0.03540729
179	0x3d8623fb	0.065498315
180	0xbd0d0249	-0.034426007
181	0x3d9b1c19	0.075737186
182	0x3d99d818	0.0751192
183	0x3dea074f	0.11427175
184	0x3dca1c0f	0.09868633
185	0xbd8a89d9	-0.067645736
186	0xbc888a85	-0.016667614
187	0x3ddadfc1	0.10687209
188	0x3d9c9758	0.07646054
189	0x3e314d4d	0.17314644
190	0xbd134b83	-0.035960685
191	0x3dda86c3	0.10670235
192	0x3e1aaa47	0.15104018
193	0x3e4e8a4f	0.20169948
194	0x3e110aee	0.14164326
195	0x3d5801b7	0.05273601
196	0x3e14b9a7	0.14523946
197	0x3e6e4c16	0.23271212
198	0x3e8c160d	0.27360573
199	0x3e52d70e	0.2058985
200	0xbd96ac5e	-0.07357095
201	0x3c6c4ead	0.014423055
202	0x3e1f9ae9	0.15586437
203	0x3e3c327b	0.18378632
204	0x3e539a77	0.20664392
205	0xbdd4e4b6	-0.10395186
206	0x3c0c1cde	0.008551804
207	0x3d613540	0.054982424
208	0x3dd0d063	0.101959966
209	0x3e3f2e71	0.1867006
210	0xbdcf5f28	-0.101255715
211	0xbd16cd8d	-0.036817122
212	0x3dd33055	0.10311953
213	0x3e2abf42	0.16674522
214	0x3dd0405f	0.10168528
215	0xbe3d4c49	-0.18486132
216	0xbd388a6b	-0.04505388
217	0x3dc12679	0.09431166
218	0x3dba1591	0.09086145
219	0x3ddebd95	0.10876004
220	0xbe2cf0c1	-0.16888715
221	0xbb31375c	-0.0027041053
222	0x3c48489c	0.012224343
223	0x3d6cc303	0.057803165
224	0x3cd524b1	0.026018472
225	0x3da199fa	0.07890697
226	0xbda2cbe2	-0.07949044
227	0xbe6abd0b	-0.22923677
228	0xbdff37d9	-0.12461824
229	0xbdaee9b4	-0.08540669
230	0x3da44d45	0.080225505
231	0xbd8582a2	-0.06519057
232	0xbe5ba90e	-0.21451208
233	0xbe16a3d1	-0.14710928
234	0xbd218af6	-0.039439164
235	0x3e1bf243	0.15229134
236	0x3bc34fd5	0.0059604445
237	0xbdd68949	-0.10475404
238	0xbcbbcccb	-0.022924801
239	0x3da781bd	0.081790425
240	0x3e6826c2	0.22671035
241	0x3cc43582	0.023951296
242	0x3dc0a874	0.0940713
243	0x3da7581d	0.08171103
244	0x3e645ee5	0.22301824
245	0x3e826d73	0.25474128
246	0x3dcad333	0.09903564
247	0x3d9b1253	0.075718544
248	0x3e8c9cbe	0.27463335
249	0x3e983133	0.29725036
250	0x3e0bfc8b	0.13670556
251	0x3da0963a	0.078411534
252	0x3e22c3ab	0.15894954
253	0x3de68bdb	0.11257144
254	0x3d24f0e0	0.04026878
255	0x3da60eba	0.081082776

StatefulPartitionedCall/model/separable_conv2d_5/separable_conv2d/ReadVariableOp_1:0 f4 [32, 64, 1, 1]
0	0xbe88a5de	-0.26689047
1	0xbd5e41a2	-0.05426181
2	0x3f0121f8	0.5044246
3	0x3d35ea1e	0.044412725
4	0xbe206cb6	-0.1566647
5	0x3d9e2c07	0.07723241
6	0xbe5f7419	-0.21821631
7	0xbeed8760	-0.46392345
8	0x3e2f87a2	0.17141584
9	0xbce387fb	-0.027774801
10	0x3e881de1	0.26585296
11	0xbe87f22e	-0.26551956
12	0x3e74cf32	0.23907164
13	0xbdbe4979	-0.092913575
14	0xbd6aa34b	-0.057284635
15	0x3da398c0	0.07988119
16	0x3eb3c17a	0.35108548
17	0x3e1a1f21	0.15050937
18	0x3e8eb9e7	0.27876207
19	0xbc68ea8f	-0.014216079
20	0x3caba2c4	0.020951636
21	0x3d41cfe5	0.047317404
22	0x3cc3d13d	0.023903484
23	0xbdb7278d	-0.089430906
24	0xbe9e4c2f	-0.30917498
25	0x3f01290d	0.50453264
26	0x3cca9c6d	0.024732793
27	0xbc3f09ea	-0.011660079
28	0x3c31fe04	0.010863785
29	0xbdb91039	-0.09036297
30	0xbe0d5416	-0.13801607
31	0xbdd99ca9	-0.10625584
32	0xbe0eb821	-0.13937427
33	0x3dfbca36	0.12294428
34	0xbdb5fc07	-0.08885961
35	0xbc57bc65	-0.013167475
36	0x3d8ad9c0	0.06779814
37	0x3defd27a	0.11710067
38	0x3e9a66fa	0.3015669
39	0x3e1af1e4	0.15131336
40	0x3e5526a2	0.20815518
41	0x3ddb9eaf	0.10723626
42	0xbdced318	-0.10098857
43	0x3cdfdf17	0.027328057
44	0xbe989db7	-0.29807827
45	0xbd4b2f79	-0.04960582
46	0x3e73fff0	0.23828101
47	0xbebdd143	-0.37073717
48	0x3e839195	0.25697008
49	0x3e4de5e6	0.2010723
50	0x3eaf71d0	0.3426652
51	0x3e25f358	0.1620611
52	0xbcbc4fcb	-0.022987267
53	0x3dac67ec	0.08418259
54	0xbda676dc	-0.081281394
55	0x3e959fed	0.29223576
56	0x3e109b3a	0.14121714
57	0xbe8baaca	-0.2727874
58	0x3e7c653d	0.24647994
59	0xbd83526d	-0.06412206
60	0x3e5b3310	0.21406198
61	0xbe82d2e3	-0.2555152
62	0x3e8c0dc5	0.27354255
63	0x3e578a0c	0.21048754
64	0xbe17fc34	-0.14842302
65	0xbe703b2b	-0.23460071
66	0x3e950b69	0.29110268
67	0xbe14559b	-0.14485781
68	0x3e0605b3	0.13088112
69	0xbe488e33	-0.19585495
70	0xbec94001	-0.39306644
71	0xbe6465e1	-0.22304489
72	0x3d4eed94	0.05051954
73	0x3b63a252	0.0034734202
74	0xbe5dd185	-0.21661957
75	0xbdc68b42	-0.0969453
76	0xbbe61513	-0.007021555
77	0x3e598ad1	0.2124436
78	0x3d39b469	0.04533807
79	0x3e3402cc	0.17579192
80	0x3e289f09	0.16466917
81	0x3e8195d5	0.25309625
82	0x3ebc5912	0.36786705
83	0xbe45384f	-0.19259761
84	0xbeb0bb3f	-0.34517857
85	0x3e67a632	0.22621992
86	0x3b42cef1	0.0029725397
87	0xbe006cc5	-0.12541492
88	0xbce4e92e	-0.02794322
89	0x3e3c838d	0.18409558
90	0xbe27caef	-0.16386007
91	0x3e8af0f3	0.27136955
92	0x3e6709cd	0.22562332
93	0x3dd325ca	0.10309942
94	0xbe01547f	-0.12629889
95	0x3d09a917	0.033608522
96	0xbd0d30bf	-0.034470316
97	0x3dc46836	0.09590189
98	0x3e979b98	0.29610896
99	0x3df41923	0.11918857
100	0xbd9aa454	-0.07550874
101	0xbd90859a	-0.070567325
102	0x3f314e53	0.6926014
103	0xbd62c97a	-0.055367924
104	0xbe7494b4	-0.2388485
105	0x3e23117b	0.15924637
106	0x3c7d512e	0.015461249
107	0xbd0a29fa	-0.03373144
108	0x3e26909b	0.162661
109	0xbdf315ce	-0.11869393
110	0x3eab462e	0.3345198
111	0xbe8458b9	-0.2584894
112	0x3dd4f597	0.10398405
113	0xbd58d84c	-0.05294065
114	0x3e718177	0.23584543
115	0xbe0952c9	-0.13410486
116	0x3e81ab7a	0.2532614
117	0x3d858f86	0.065215155
118	0xbdc29432	-0.09500922
119	0x3dbc5665	0.09196166
120	0x3d34c4d2	0.044133015
121	0xbe03d5d9	-0.12874545
122	0x3e5b707f	0.21429633
123	0xbdf439d7	-0.119250946
124	0x3e3bc35d	0.18336244
125	0xbe73301a	-0.23748818
126	0x3eab68d4	0.33478415
127	0xbe429f75	-0.1900614
128	0xbd8d0e16	-0.06887452
129	0x3c1105d5	0.008851488
130	0xbe4b893f	-0.19876574
131	0x3dc68809	0.096939154
132	0x3dc38259	0.09546346
133	0x3e4ebf37	0.2019013
134	0x3d525e87	0.05135968
135	0xbe4f4373	-0.20240574
136	0xbe51b766	-0.20480117
137	0x3e89bf8a	0.26903945
138	0xbe63371b	-0.2218899
139	0xbe1ac1a9	-0.15112938
140	0x3d7dd11e	0.061967008
141	0x3e4bead9	0.19913806
142	0x3e58f629	0.21187653
143	0x3d8efe20	0.06982064
144	0xbc857454	-0.016290821
145	0x3e595cf6	0.21226868
146	0x3e799556	0.24373373
147	0xbe6177b1	-0.22018315
148	0x3e45f01d	0.19329877
149	0x3c4da37b	0.012551184
150	0xbe7e18df	-0.24814175
151	0xbe4dc657	-0.20095192
152	0xbe99c9e1	-0.30036834
153	0x38b4693b	8.6026695e-05
154	0x3a97bbc4	0.0011576344
155	0x3e904e97	0.2818496
156	0xbcc01392	-0.023446832
157	0xbdf6420d	-0.12024317
158	0x3c9e60bd	0.019333238
159	0x3e2d55ca	0.16927257
160	0xbe2f1f10	-0.17101693
161	0x3e05fbcb	0.13084333
162	0xbeb2d0cd	-0.34924927
163	0x3d5867e5	0.052833457
164	0x3d4bb9d2	0.04973776
165	0x3daa2850	0.0830847
166	0x3e2a0403	0.16603093
167	0xba35a8ef	-0.0006929775
168	0x3e3adc3b	0.18248074
169	0x3e222940	0.15836048
170	0x3c8b0899	0.016971873
171	0x3e0efe73	0.13964252
172	0xbddc75a4	-0.10764626
173	0xbe19a3cc	-0.1500389
174	0xbd11dd72	-0.035611577
175	0xbe78bba3	-0.24290328
176	0x3da4261d	0.08015082
177	0x3c591dfd	0.013251779
178	0xbd9c9304	-0.076452285
179	0xbe777442	-0.24165443
180	0x3cb41528	0.021982744
181	0xbda8332b	-0.082128845
182	0x3e40f0d6	0.18841872
183	0x3b503cfc	0.003177463
184	0x3e42f0c0	0.19037151
185	0xbe1106ed	-0.14162798
186	0x3eb99af7	0.3625104
187	0x3cf1f021	0.029533448
188	0x3e1ef5df	0.1552348
189	0x3e260e78	0.16216457
190	0x3dbbbdbc	0.09167048
191	0x3dbc6fcc	0.09201011
192	0x3c321de7	0.010871387
193	0x3d4d240c	0.050083205
194	0xbe575599	-0.21028747
195	0x3e4abd31	0.19798733
196	0xbdb415c4	-0.08793214
197	0x3de06cb3	0.10958233
198	0x3deb7b91	0.11498178
199	0x3daa3f32	0.08312835
200	0xbd95b008	-0.07308966
201	0x3e30d3d2	0.17268303
202	0x3e0488e9	0.12942852
203	0x3e55c662	0.20876458
204	0xbe6a2258	-0.22864664
205	0x3de6070c	0.11231813
206	0xbd7dbfba	-0.061950423
207	0xbd8f02b6	-0.06982939
208	0x3c948d6b	0.01813384
209	0xbe33ce74	-0.17559224
210	0x3ee8e89c	0.45489967
211	0x3db4a9ca	0.08821447
212	0x3e84dcb9	0.25949648
213	0xbd926bfb	-0.07149502
214	0xbe0fd3bb	-0.14045613
215	0x3d4593be	0.0482366
216	0x3e51e84c	0.2049877
217	0xbe252913	-0.1612895
218	0x3e82b7d0	0.25530863
219	0xbe686d55	-0.22697957
220	0xbefa4e42	-0.4888783
221	0x3e5782e7	0.21046029
222	0xbe9b5e41	-0.30345348
223	0xbea70f3c	-0.3262881
224	0x3e492c66	0.19645843
225	0xbc2bcbda	-0.010485614
226	0x3e21124e	0.15729639
227	0x3e15a781	0.14614679
228	0x3eaace10	0.33360338
229	0x3e864866	0.2622711
230	0xbe9ad9cd	-0.30244294
231	0xbe0a5deb	-0.1351239
232	0x3e246236	0.1605309
233	0xbe3bdbcf	-0.18345569
234	0x3ec63b0d	0.38716927
235	0x3e32cf01	0.17461778
236	0xbda6aede	-0.08138822
237	0xbdc2dfcc	-0.09515342
238	0xbe6aee36	-0.22942433
239	0x3e5a0141	0.21289541
240	0xbe246b58	-0.16056573
241	0xbef5923f	-0.4796314
242	0xbd0e5a76	-0.03475424
243	0xbda0bec6	-0.07848887
244	0xbcf6dd8f	-0.030134944
245	0xbe69c176	-0.22827706
246	0x3d94b00a	0.07260139
247	0xbcecfe01	-0.028929712
248	0x3da29238	0.07938045
249	0x3ecee808	0.404114
250	0xbe856730	-0.26055288
251	0x3e24b41a	0.16084328
252	0x3ec0bce2	0.37644106
253	0xbd7df1cc	-0.061998174
254	0xbd8e7497	-0.069558315
255	0x3d97ab94	0.07405773

StatefulPartitionedCall/model/separable_conv2d_5/BiasAdd/ReadVariableOp:0 f4 [32]
0	0x3e8567d2	0.2605577
1	0x3ea7ef60	0.32799816
2	0xbe16ac38	-0.14714134
3	0xbd230759	-0.03980193
4	0x3e58a254	0.21155673
5	0x3e81f636	0.25383157
6	0xbe26586e	-0.16244671
7	0x3e59ecde	0.21281764
8	0x3c822f4b	0.015891692
9	0xbdae54bc	-0.085122555
10	0xbd80b365	-0.06284217
11	0xbe21bac3	-0.157939
12	0x3e7d4cc6	0.24736318
13	0x3d65e7aa	0.056129135
14	0x3e4d6b0a	0.20060363
15	0x3e740a99	0.23832168
16	0x3d1597eb	0.036521833
17	0x3e66df62	0.22546151
18	0x3e4929b8	0.1964482
19	0x3e78d650	0.24300504
20	0xbdad97f7	-0.084762506
21	0x3d89a2e5	0.06720523
22	0x3e5be8c8	0.21475518
23	0x3e894271	0.26808503
24	0xbba87694	-0.0051410887
25	0x3e669445	0.22517498
26	0x3e6b743c	0.22993559
27	0xbeba973a	-0.36443502
28	0x3e6da0d0	0.23205876
29	0x3e576bde	0.21037242
30	0x3e46ae4b	0.19402425
31	0x3e91477d	0.28374854
